receipt_prediction_model.pth (torch, 3314 bytes, 5 tensors)

fc1.weight f4 [10, 2]
1.1833656 2.1780229 0.51429576 -0.16904831 2.5460298 2.4109974 -0.28859448 -0.34026894
1.5520884 1.8985618 -0.59088206 -0.1109128 2.2946386 2.3043985 0.39971 -0.3442827
1.4362895 1.903088 1.7228787 2.0776865
00000000: 8678 973f ba64 0b40 e3a8 033f 001b 2dbe
00000010: 27f2 2240 c84d 1a40 a8c2 93be bb37 aebe
00000020: d5aa c63f 1304 f33f 0c44 17bf 4026 e3bd
00000030: 5cdb 1240 447b 1340 caa6 cc3e d245 b0be
00000040: 56d8 b73f 6398 f33f 4a87 dc3f d1f8 0440

fc1.bias f4 [10]
1.3430582 -0.116175175 1.9985068 -0.27278966 1.1865193 -0.48430765 2.5149543 0.4295532
2.2979336 1.9582957
00000000: 55e9 ab3f 40ed edbd 12cf ff3f 16ab 8bbe
00000010: dddf 973f 2cf7 f7be 03f5 2040 66ee db3e
00000020: 5811 1340 6fa9 fa3f

fc2.weight f4 [10, 10]
1.8974032 0.07366952 1.6130793 0.13779926 1.6104833 0.16441795 1.7276182 -0.0874657
2.1101496 1.824919 1.6773186 0.30655983 1.6011045 -0.29692373 2.1074002 -0.12172364
2.072634 -0.14404088 1.7086699 2.1027195 1.4852166 -0.07106903 1.8452612 -0.10451539
1.5064474 -0.12546815 1.8592308 -0.19706328 1.9779414 1.9567822 -0.06815639 -0.1411103
-0.24212015 0.14173612 0.1397683 0.12200531 -0.032236487 -0.14697795 -0.014938086 0.06566402
1.7093844 0.04215476 1.9481099 0.028507859 1.730557 -0.28959364 1.5227709 0.16905427
2.181915 2.1437912 0.18764181 -0.088508666 -0.07595322 -0.096962586 0.12652655 0.02921325
-0.005563977 -0.24195537 0.03185397 -0.3050023 -0.025756296 -0.092971355 -0.08043362 -0.038278848
0.21722342 -0.28871354 -0.031834878 -0.2908969 0.08575488 -0.12074601 -0.07399692 0.028735697
0.035244823 0.11911076 -0.28834903 -0.12768829 -0.06432122 -0.25679436 -0.22960581 -0.09197727
-0.19527903 -0.15196915 -0.26253667 -0.0052164495 -0.100193694 -0.040329963 -0.04430026 0.3149844
-0.31506902 0.070792764 -0.19086823 0.021394312 -0.2757908 0.23649576 -0.15927224 -0.21057312
-0.22991934 0.009139001 0.021032184 0.20208016
00000000: 1cde f23f 0ce0 963d 6279 ce3f 401b 0d3e
00000010: 5124 ce3f 2e5d 283e 9822 dd3f 3821 b3bd
00000020: b10c 0740 f296 e93f 60b2 d63f 69f5 9c3e
00000030: fef0 cc3f 6306 98be a5df 0640 3e4a f9bd
00000040: 09a6 0440 747f 13be b2b5 da3f f592 0640
00000050: 941b be3f a48c 91bd 8531 ec3f 2a0c d6bd
00000060: 45d3 c03f b97a 00be 46fb ed3f f5ca 49be
00000070: 2f2d fd3f d777 fa3f 9495 8bbd 387f 10be
00000080: 58ee 77be 4623 113e 6c1f 0f3e ecdd f93d
00000090: 680a 04bd 6381 16be e0be 74bc dc7a 863d
000000a0: 1ccd da3f 78aa 2c3d aa5b f93f 5089 e93c
000000b0: e482 dd3f 9e45 94be 28ea c23f 901c 2d3e
000000c0: 7fa4 0b40 e033 0940 2d25 403e 0844 b5bd
000000d0: 5d8d 9bbd 5294 c6bd 2d90 013e a050 ef3c
000000e0: 0652 b6bb 26c3 77be 4f79 023d 4329 9cbe
000000f0: defe d2bc c467 bebd 62ba a4bd 48ca 1cbd
00000100: d16f 5e3e 43d2 93be 4a65 02bd 70f0 94be
00000110: 41a0 af3d af49 f7bd b28b 97bd 2067 eb3c
00000120: e05c 103d 58f0 f33d 7ca2 93be b8c0 02be
00000130: d8ba 83bd 8d7a 83be c91d 6bbe 945e bcbd
00000140: 3af7 47be cd9d 1bbe 356b 86be c0ee aabb
00000150: 5a32 cdbd 0831 25bd 3074 35bd a345 a13e
00000160: ba50 a1be ccfb 903d f672 43be 2043 af3c
00000170: 7434 8dbe f22b 723e 4318 23be 7ba0 57be
00000180: fa6f 6bbe c0bb 153c b04b ac3c 1aee 4e3e

fc2.bias f4 [10]
1.2727057 1.5029154 1.2082186 0.12361011 1.5218925 0.04031245 -0.17385131 0.20023546
0.030736715 -0.01609081
00000000: 05e8 a23f 885f c03f e8a6 9a3f 4c27 fd3d
00000010: 60cd c23f ab1e 253d 1406 32be 860a 4d3e
00000020: 90cb fb3c e0d0 83bc

fc3.weight f4 [1, 10]
2.1511557 1.8584507 2.0533981 0.109697044 1.8550472 -0.20125921 -0.0023263977 0.057365328
0.0976111 0.15374127
00000000: 89ac 0940 b6e1 ed3f e06a 0340 d8a8 e03d
00000010: 3072 ed3f e516 4ebe 7a76 18bb e8f7 6a3d
00000020: 54e8 c73d 5a6e 1d3e
